artifacts/best_model.pt (torch, 633717 bytes, 22 tensors)

features.0.weight f4 [16, 1, 3, 3]
0.21296981 0.35410124 0.014276809 0.349251 0.050248887 0.14926943 -0.1386601 0.20385903
0.25911275 -0.23228283 0.28591287 0.04770051 0.24480501 0.07089962 0.16358061 0.010108806
0.28703457 0.046233207 -0.14908606 0.10767438 -0.1347794 -0.06845342 -0.14583875 0.20960544
-0.3343509 -0.14078099 -0.085068144 -0.21134636 0.02321719 -0.33370727 0.31245106 -0.26505423
0.26141474 0.05662827 -0.10790817 0.19588804 0.013732563 0.25003785 -0.003610402 -0.16007805
0.040878244 -0.14107011 0.08342413 0.3030905 0.18927218 -0.10420005 0.2234947 0.08588428
0.21090078 -0.16853413 -0.31019735 -0.11092484 -0.24316475 0.2831938 0.17843327 0.20305648
0.12944767 0.0034139734 0.31175044 -0.18041477 0.007709665 -0.20423143 0.1091923 -0.08321976
0.13125743 -0.039425146 0.27398837 -0.20055912 -0.20142588 -0.1838712 0.31134364 0.12251313
0.3248671 -0.27091712 -0.3313068 -0.24345963 -0.20872454 0.13879493 0.13492756 0.2949491
-0.155952 -0.2243466 0.17563206 -0.13233835 0.2263062 -0.05350681 0.21080118 -0.23716636
-0.15102494 0.10788658 0.08096302 -0.08702894 0.18131919 0.2446506 -0.22796786 -0.17845443
0.29051733 -0.13793914 -0.1447789 -0.36700216 -0.19183159 0.11416435 -0.12987888 -0.24264763
0.03442285 -0.21784651 -0.2221553 -0.14571986 -0.33510587 -0.22545588 0.31753564 -0.00020070063
0.06616949 -0.3410779 -0.19293371 -0.07964605 0.05647805 -0.308467 -0.0921721 -0.12195726
-0.097621985 -0.16933042 0.00060731353 -0.2799816 -0.23202653 -0.16789542 -0.13070446 -0.27679852
0.2841732 -0.090298496 0.26433155 0.08923855 -0.28173053 0.23867169 -0.07340717 -0.13597791
-0.28938538 -0.3572947 0.09251246 -0.07931747 0.10921882 -0.25305736 0.26796418 -0.23663737
00000000: c214 5a3e c24c b53e 47e9 693c 07d1 b23e
00000010: c7d1 4d3d 16da 183e eafc 0dbe 6cc0 503e
00000020: 6daa 843e 8ddb 6dbe 2c63 923e 9c61 433d
00000030: 2aae 7a3e d233 913d ad81 273e 689f 253c
00000040: 32f6 923e 085f 3d3d 04aa 18be 6384 dc3d
00000050: 9c03 0abe 4f31 8cbd c156 15be cfa2 563e
00000060: 0b30 abbe e428 10be 3538 aebd 2e6b 58be
00000070: fa31 be3c aedb aabe 96f9 9f3e 30b5 87be
00000080: 27d8 853e 0bf3 673d f5fe dcbd e096 483e
00000090: 8bfe 603c f604 803e 7f9c 6cbb 80eb 23be
000000a0: f26f 273d af74 10be 45da aa3d ae2e 9b3e
000000b0: 91d0 413e d666 d5bd cbdb 643e 19e4 af3d
000000c0: 60f6 573e 3694 2cbe 30d2 9ebe 902c e3bd
000000d0: 2e00 79be c7fe 903e 36b7 363e 0aee 4f3e
000000e0: ee8d 043e f8bc 5f3b c19d 9f3e a6be 38be
000000f0: 5ca1 fc3b 0b22 51be 36a0 df3d 1f6f aabd
00000100: 5968 063e 437c 21bd 3448 8c3e 5f5f 4dbe
00000110: 9642 4ebe bb48 3cbe 6f68 9f3e 2ae8 fa3d
00000120: fb54 a63e a6b5 8abe 0ba1 a9be 7b4d 79be
00000130: e3bb 55be 4220 0e3e 732a 0a3e 9203 973e
00000140: e2b1 1fbe 1dbb 65be e4d8 333e b483 07be
00000150: d0bc 673e f529 5bbd 44dc 573e bddb 72be
00000160: 48a6 1abe a4f3 dc3d f1cf a53d 3b3c b2bd
00000170: bdab 393e b085 7a3e 6870 69be c2bc 36be
00000180: b0be 943e eb3f 0dbe ec40 14be b5e7 bbbe
00000190: 806f 44be 00cf e93d f8fe 04be 9f78 78be
000001a0: f9fe 0c3d 2813 5fbe ae7c 63be 9637 15be
000001b0: ff92 abbe e8dd 66be 0894 a23e 2a73 52b9
000001c0: df83 873d c3a1 aebe 6a90 45be 781d a3bd
000001d0: 8755 673d 63ef 9dbe bac4 bcbd bac4 f9bd
000001e0: 09ee c7bd f464 2dbe 1f34 1f3a c059 8fbe
000001f0: 5d98 6dbe c7ec 2bbe 64d7 05be 89b8 8dbe
00000200: 267f 913e 6bee b8bd 7756 873e b3c2 b63d
00000210: fc3e 90be 5a66 743e 8056 96bd cb3d 0bbe
00000220: 522a 94be 55ef b6be 2c77 bd3d 3371 a2bd
00000230: 1eae df3d bc90 81be 9a32 893e 1151 72be

features.0.bias f4 [16]
-0.054618947 0.08500745 0.16895744 0.251496 0.27895695 -0.2579444 0.06654281 -0.14963664
-0.06780623 -0.20632228 0.30821672 -0.24573179 0.17026496 0.124597006 0.12235709 -0.18355636
00000000: 1eb8 5fbd 6318 ae3d 2e03 2d3e 15c4 803e
00000010: 72d3 8e3e 4a11 84be 9947 883d 593a 19be
00000020: fedd 8abd 2646 53be 95ce 9d3e 1da1 7bbe
00000030: f059 2e3e b72c ff3d 5b96 fa3d 33f6 3bbe

features.1.weight f4 [16]
0.9929615 0.99473655 0.98975444 1.016357 1.0019968 0.99686146 0.988012 0.9833756
0.9782654 1.0393496 1.0219117 0.98155725 0.9873163 0.96180356 1.0098121 0.9823125
00000000: ba32 7e3f 0ea7 7e3f 8c60 7d3f fc17 823f
00000010: 6e41 803f 5032 7f3f 5bee 7c3f 81be 7b3f
00000020: 9a6f 7a3f 6809 853f 01ce 823f 5647 7b3f
00000030: c3c0 7c3f c238 763f 8641 813f d578 7b3f

features.1.bias f4 [16]
-0.006745093 -0.034733474 -0.011582891 0.016469466 -0.001933566 0.01080141 -0.014586509 -0.037958026
0.05947266 0.050117653 -0.07482628 -0.050029907 -0.013540951 0.010807924 0.016506825 0.029305385
00000000: f105 ddbb b044 0ebd 2bc6 3dbc f9ea 863c
00000010: b56f fdba 66f8 303c 41fc 6ebc e079 1bbd
00000020: 9b99 733d 2b48 4d3d 853e 99bd 29ec 4cbd
00000030: ddda 5dbc b813 313c 5239 873c d911 f03c

features.1.running_mean f4 [16]
-0.042336866 0.08979954 0.16451806 0.24025561 0.28686273 -0.2541683 0.07871759 -0.14848387
-0.07116874 -0.21122831 0.31085026 -0.25710455 0.16451101 0.11146343 0.11970671 -0.19995843
00000000: 6c69 2dbd d2e8 b73d 6c77 283e 9105 763e
00000010: acdf 923e 5922 82be b036 a13d 280c 18be
00000020: ebc0 91bd 3c4c 58be c427 9f3e 35a3 83be
00000030: 9375 283e f046 e43d cb28 f53d e7c1 4cbe

features.1.running_var f4 [16]
1.7146983 0.739726 0.46872032 0.064261615 0.29330406 0.045353785 0.28967416 0.033380892
0.15983191 0.037321083 0.05103101 1.5313915 0.45923084 1.7048482 0.052868422 0.6200186
00000000: 3c7b db3f af5e 3d3f 1cfc ef3e 989b 833d
00000010: f32b 963e e4c4 393d 2c50 943e 67ba 083d
00000020: faaa 233e fedd 183d e405 513d a304 c43f
00000030: 4e20 eb3e 7738 da3f 8f8c 583d 8ab9 1e3f

features.4.weight f4 [32, 16, 3, 3]
0.07016817 0.011805891 0.0042105108 -0.07816683 0.030496111 -0.017348452 -0.04191699 0.06560412
0.012464843 -0.04956827 -0.04825848 -0.010202748 0.03937399 -0.031644903 -0.05642077 -0.029502532
-0.06549466 0.026889002 0.06577818 -0.08588306 0.018454626 0.0521713 0.018742641 -0.020709563
0.041180678 0.036617115 0.029614424 -0.08169223 -0.08832747 -0.053982873 -0.05991696 -0.066123
0.02059267 0.05838591 -0.016048916 -0.023792345 -0.0064302804 -0.0137788765 0.0105915675 0.012673986
-0.08891785 -0.042730577 0.0669797 0.027733825 -0.009955424 -0.059183605 -0.05788055 -0.07475692
-0.022327872 0.024597015 0.055412877 0.028128007 -0.081327036 -0.050180115 -0.024829905 0.06927699
-7.4610674e-05 -0.025543988 0.031844117 -0.03804012 -0.06718632 0.045910154 -0.051013384 -0.029607322
-0.09402152 0.03922311 0.04287792 0.017481769 -0.069065474 -0.055453643 -0.047445185 0.06946947
0.018670755 0.055352807 0.058844056 0.0049740705 -0.012012132 -0.045844767 -0.0652378 -0.062194288
0.06581051 -0.06467271 -0.073675565 -0.11261425 -0.04625047 -0.101923496 -0.11000933 -0.009833402
-0.08906503 -0.017693507 -0.06217765 -0.06345618 -0.0043082694 -0.0571856 -0.025080876 -0.06310689
0.012392741 -0.0620056 0.051577028 0.041530702 0.055753358 -0.05572391 0.07388708 -0.03274756
0.046258632 0.07952576 -0.01263786 0.0066472515 -0.013709721 -0.07177537 0.043221675 -0.06742842
0.055990584 0.073000655 0.08236998 -0.01994913 -0.0633355 0.01965204 0.042558253 -0.07317516
-0.008060109 -0.043421328 0.009510878 -0.040968414 -0.03514501 -0.01818307 -0.050122816 0.057082903
0.05034634 -0.0011504091 -0.053166345 -0.058615208 -0.06662747 -0.109653674 0.004551079 -0.05197247
-0.06272939 0.0011316298 -0.021558855 -0.020636411 0.021208076 -0.020659212 -0.03311037 -0.034171183
-0.05831314 0.071385294 -0.04982434 0.026424374 -0.030165737 -0.019210214 0.0855567 0.03831158
-0.09333495 0.051108338 0.08402317 0.006265158 0.06545288 0.07658192 -0.03746852 0.03643948
-0.052863296 -0.029202988 0.052521456 0.047394905 -0.054474596 -0.07175024 -0.04908097 -0.081416085
-0.07400521 -0.019491889 0.050499514 0.033835996 -0.049105983 -0.062468886 0.026307827 -0.078677654
-0.031940144 0.07529979 -0.009912865 0.012191156 0.0038960597 -0.018402787 -0.06483932 -0.07101493
-0.07751126 -0.080263644 0.0927297 -0.03900237 -0.074599296 0.014480423 0.024496462 0.040151827
0.06351174 0.057546496 -0.074233 -0.0054280665 0.047225166 -0.016716909 -0.046993893 0.080895476
-0.045079 -0.03161508 -0.061442096 -0.011875088 0.033123694 0.009601458 -0.014844096 -0.062267993
-0.078807995 -0.022342645 0.04311712 0.0138382055 -0.09177671 -0.0048771827 -0.06494593 -0.054713488
0.030932527 0.050579075 0.076250814 -0.07275398 0.05405747 -0.061447706 0.054979328 0.086779214
0.013558566 0.04008493 -0.08582516 -0.05715125 0.01859622 -0.02914323 -0.041237947 -0.0811977
0.026316384 -0.005389911 0.036425292 -0.006245813 -0.046531603 0.040045045 0.05524799 -0.018935872
0.005045666 0.08078751 0.013573817 -0.00049257465 -0.013595588 -0.076061055 -0.080923185 -0.03378231
-0.042298194 0.022448583 -0.017880447 -0.032668468 0.07367905 0.037962776 0.057496946 -0.044683654
00000000: 54b4 8f3d 7f6d 413c 53f8 893b ee15 a0bd
00000010: fbd2 f93c 571e 8ebc 26b1 2bbd 745b 863d
00000020: 5739 4c3c 1908 4bbd afaa 45bd 6d29 27bc
00000030: 9f46 213d 169e 01bd 7719 67bd 4baf f1bc
00000040: 1022 86bd 5346 dc3c b6b6 863d 75e3 afbd
00000050: 282e 973c 93b1 553d 2b8a 993c 1aa7 a9bc
00000060: 12ad 283d d4fb 153d f399 f23c 424e a7bd
00000070: 08e5 b4bd 251d 5dbd 7c6b 75bd 7f6b 87bd
00000080: f6b1 a83c 1026 6f3d 0479 83bc 2ae8 c2bc
00000090: 1ab5 d2bb ccc0 61bc 4188 2d3c 8da6 4f3c
000000a0: 901a b6bd 4206 2fbd a72c 893d 0c32 e33c
000000b0: 131c 23bc 826a 72bd 2814 6dbd 281a 99bd
000000c0: f1e8 b6bc ae7f c93c 9df8 623d b56c e63c
000000d0: ca8e a6bd aa89 4dbd 1668 cbbc 18e1 8d3d
000000e0: 4d78 9cb8 a041 d1bc fa6e 023d f5cf 1bbd
000000f0: fb98 89bd 490c 3c3d 69f3 50bd 0e8b f2bc
00000100: 5b8e c0bd 69a8 203d c2a0 2f3d ed35 8f3c
00000110: 3372 8dbd 5c23 63bd e255 42bd 0246 8e3d
00000120: 69f3 983c a0b9 623d 7706 713d 87fd a23b
00000130: 89ce 44bc b9c7 3bbd 659b 85bd 70bf 7ebd
00000140: a9c7 863d 2073 84bd 37e3 96bd 4da2 e6bd
00000150: 2271 3dbd 44bd d0bd 924c e1bd 471c 21bc
00000160: ba67 b6bd f9f1 90bc fead 7ebd 50f5 81bd
00000170: 622c 8dbb 733b 6abd 6976 cdbc 2f3e 81bd
00000180: ec0a 4b3c 96f9 7dbd 6f42 533d 191c 2a3d
00000190: a25d 643d c13e 64bd 1c52 973d 4e22 06bd
000001a0: b179 3d3d 67de a23d 070f 4fbc 30d1 d93b
000001b0: bd9e 60bc f7fe 92bd 3609 313d e917 8abd
000001c0: 6256 653d 5e81 953d 98b1 a83d 5c6c a3bc
000001d0: 0bb6 81bd 51fd a03c 9051 2e3d dcdc 95bd
000001e0: 8c0e 04bc 90da 31bd 83d3 1b3c 7fce 27bd
000001f0: 37f4 0fbd a9f4 94bc 954d 4dbd c3cf 693d
00000200: f737 4e3d 53c9 96ba f4c4 59bd 8016 70bd
00000210: fc73 88bd 1b92 e0bd 3821 953b 16e1 54bd
00000220: 4478 80bd 3253 943a 329c b0bc b10d a9bc
00000230: 8fbc ad3c 823d a9bc bd9e 07bd 15f7 0bbd
00000240: c2d9 6ebd 7432 923d 9b14 4cbd ee77 d83c
00000250: 231e f7bc bd5e 9dbc 5a38 af3d 9aec 1c3d
00000260: 6526 bfbd fa56 513d 5714 ac3d f44b cd3b
00000270: 290c 863d fbd6 9c3d 9778 19bd 9041 153d
00000280: 2f87 58bd 1b3b efbc bd20 573d 2921 423d
00000290: c120 5fbd caf1 92bd 2109 49bd 7abd a6bd
000002a0: 0b90 97bd 74ad 9fbc 94d8 4e3d 9d97 0a3d
000002b0: 5b23 49bd 60df 7fbd 8383 d73c c021 a1bd
000002c0: abd3 02bd c736 9a3d 9269 22bc 6abd 473c
000002d0: 0955 7f3b 71c1 96bc 7aca 84bd 4770 91bd
000002e0: 39be 9ebd 4461 a4bd 12e9 bd3d f3c0 1fbd
000002f0: 84c7 98bd 4c3f 6d3c ceac c83c 3e76 243d
00000300: 7112 823d e0b5 6b3d 7907 98bd ecdd b1bb
00000310: 2d6f 413d e6f1 88bc ab7c 40bd 87ac a53d
00000320: c2a4 38bd d07e 01bd b5aa 7bbd bb8f 42bc
00000330: b6ac 073d 6f4f 1d3c a734 73bc b90c 7fbd
00000340: 1666 a1bd ec07 b7bc 949b 303d a4b9 623c
00000350: 6df5 bbbd c6d0 9fbb 5f02 85bd 401b 60bd
00000360: 3666 fd3c 012c 4f3d 6329 9c3d 0a00 95bd
00000370: 5e6b 5d3d 97b0 7bbd 0132 613d 4db9 b13d
00000380: bf24 5e3c 1830 243d 1ac5 afbd 6e17 6abd
00000390: 1a57 983c c8bd eebc 1fe9 28bd fb4a a6bd
000003a0: 7595 d73c da9d b0bb b032 153d ada9 ccbb
000003b0: ec97 3ebd 4606 243d b74b 623d 671f 9bbc
000003c0: 1d56 a53b ec73 a53d b764 5e3c 2020 01ba
000003d0: 07c0 5ebc e6c5 9bbd 0ebb a5bd 525f 0abd
000003e0: df40 2dbd 17e6 b73c 047a 92bc 5fcf 05bd
000003f0: 0be5 963d db7e 1b3d eb81 6b3d 3506 37bd

features.4.bias f4 [32]
0.0036451912 0.062381025 -0.056399796 -0.06656403 -0.085264005 0.07302811 0.07065917 -0.07741615
0.023090394 0.0148215545 -0.057438135 0.013661912 0.056479808 0.08885669 0.032424904 -0.0008723695
-0.030966373 -0.043712195 -0.01440448 0.0018214281 0.07772657 -0.06351697 0.018937444 -0.042767137
-0.017684776 0.065983415 0.029777769 -0.009352455 -0.030382631 -0.06992051 -0.05582876 0.04770275
00000000: 29e4 6e3b 3f83 7f3d 7903 67bd b952 88bd
00000010: e59e aebd c38f 953d c1b5 903d 5c8c 9ebd
00000020: 1128 bd3c 1bd6 723c 4044 6bbd 36d6 5f3c
00000030: 5f57 673d 7ffa b53d facf 043d baaf 64ba
00000040: 31ad fdbc 8f0b 33bd c500 6cbc fcbc ee3a
00000050: 1c2f 9f3d 2f15 82bd b322 9b3c 982c 2fbd
00000060: aadf 90bc 5022 873d 82f0 f33c 0a3b 19bc
00000070: ffe4 f8bc 7c32 8fbd b3ac 64bd f563 433d

features.5.weight f4 [32]
1.0283984 1.0106889 0.9789567 0.9853571 0.9747334 1.0366026 0.99252206 1.0034758
1.0091947 1.0061308 1.0289696 1.0252064 1.0098339 0.9973157 0.9927215 0.9566031
0.9879316 1.0019833 1.01894 0.98569524 1.0035105 0.96159655 0.9736526 0.9957913
0.9777854 0.98603916 0.9840235 1.0241814 0.98979634 1.0434303 0.99029803 0.9826841
00000000: 8fa2 833f 415e 813f e89c 7a3f 5d40 7c3f
00000010: 2188 793f 65af 843f ed15 7e3f e571 803f
00000020: 4b2d 813f e5c8 803f 47b5 833f f739 833f
00000030: 3d42 813f 1550 7f3f ff22 7e3f f1e3 743f
00000040: 16e9 7c3f fd40 803f a06c 823f 8656 7c3f
00000050: 0873 803f 312b 763f 4c41 793f 2eec 7e3f
00000060: 2550 7a3f 106d 7c3f f7e8 7b3f 6018 833f
00000070: 4b63 7d3f 208f 853f 2c84 7d3f 2f91 7b3f

features.5.bias f4 [32]
-0.057029814 -0.033632047 -0.04474938 -0.013787658 4.065698e-05 -0.040498048 -0.056554608 -0.038820688
-0.01916739 -0.039278574 -0.019651692 -0.055484988 -0.07609175 -0.040320564 -0.022470426 -0.0537112
-0.047235645 -0.06847946 -0.01811397 0.009497336 -0.1068498 -0.05209455 -0.039568897 -0.059068106
-0.08899044 -0.047791958 -0.0040981495 -0.05567114 -0.08437497 -0.07423656 -0.00092492107 -0.058394335
00000000: 1898 69bd c2c1 09bd 204b 37bd a1e5 61bc
00000010: 1a87 2a38 48e1 25bd cea5 67bd 7102 1fbd
00000020: ee04 9dbc 92e2 20bd 96fc a0bc 3a44 63bd
00000030: fed5 9bbd 2d27 25bd e613 b8bc 4600 5cbd
00000040: 2a7a 41bd f63e 8cbd c063 94bc b79a 1b3c
00000050: 11d4 dabd 1861 55bd ff12 22bd 66f1 71bd
00000060: 9f40 b6bd 80c1 43bd c549 86bb 6c07 64bd
00000070: c9cc acbd 5609 98bd 6776 72ba e62e 6fbd

features.5.running_mean f4 [32]
-1.4081085 -0.36761904 -0.08882922 -1.694906 -0.13552622 -0.15038195 1.1592156 -0.36776865
-1.2047967 0.14738491 -0.5624999 -0.11600453 -1.4927057 1.4154558 -1.0954883 -0.08603365
0.43612173 0.40472803 -0.66023237 -0.41945153 -0.16863555 -0.36266005 -0.2166421 -1.6201204
0.07679469 -0.5656084 -0.011622121 -0.5431632 -0.42012858 -0.6657606 -0.44068906 -0.23811935
00000000: e63c b4bf 9038 bcbe 18ec b5bd aef2 d8bf
00000010: 63c7 0abe bafd 19be 2d61 943f 2c4c bcbe
00000020: c736 9abf 12ec 163e feff 0fbf c893 edbd
00000030: fb10 bfbf a82d b53f f638 8cbf 6932 b0bd
00000040: 594b df3e 8338 cf3e fd04 29bf 5ac2 d6be
00000050: ccae 2cbe 94ae b9be 6dd7 5dbe 1b60 cfbf
00000060: 8946 9d3d b6cb 10bf b56a 3ebc be0c 0bbf
00000070: 181b d7be 496f 2abf ffa1 e1be 8fd5 73be

features.5.running_var f4 [32]
0.3610944 0.21212201 0.22223434 0.6506214 0.34689265 0.139686 0.79665786 0.17003426
0.33447567 0.30295828 0.15797746 0.307679 0.51545197 0.67653996 0.6137833 0.17525607
0.3640475 0.32823074 0.29657015 0.20387475 0.16770616 0.13971096 0.6549648 0.7557248
0.14249155 0.19120999 0.2566925 0.099278815 0.19321173 0.19984844 0.14216484 0.33815628
00000000: 5de1 b83e 8336 593e 6691 633e 208f 263f
00000010: ea9b b13e d909 0f3e c5f1 4b3f 761d 2e3e
00000020: 6540 ab3e 591d 9b3e d8c4 213e 1a88 9d3e
00000030: a9f4 033f b931 2d3f e720 1d3f 5476 333e
00000040: 6f64 ba3e dc0d a83e 0bd8 973e 8bc4 503e
00000050: 2abb 2b3e 6410 0f3e c6ab 273f 2e77 413f
00000060: 4ee9 113e 8dcc 433e 336d 833e b152 cb3d
00000070: 4cd9 453e 12a5 4c3e a993 113e d222 ad3e

features.8.weight f4 [64, 32, 3, 3]
-0.05328829 0.0154132955 -0.034294467 0.009217341 0.029138798 -0.0032102573 0.009975867 0.0362146
-0.031123104 0.02156526 -0.03945645 0.043333285 -0.024785675 0.0064785643 0.03365771 -0.014934135
0.040709857 -0.029208625 -0.008400589 0.06445984 -0.015627889 0.05299829 0.061489012 0.047661085
-0.015944064 -0.0015394393 -0.04363699 -0.053797696 -0.031719867 -0.053670123 0.020106308 0.018734638
-0.024006877 -0.0198699 0.046312626 -0.0071229693 0.030039703 0.035240762 -0.033995222 -0.06604058
0.0395052 -0.039477002 0.03541947 -0.055871088 -0.0015503876 -0.0076332656 -0.03584537 0.0206724
-0.060605858 -0.03358759 -0.019401815 -0.0035213677 -0.009634691 0.0027754772 0.018045422 0.05093089
-0.017532345 -0.016850768 -0.0026233143 0.026451966 -0.015453103 0.027332757 0.018503573 0.042444177
0.07003177 0.041141003 0.07509195 0.011962083 -0.012703762 0.06528249 0.046648204 0.08004374
-0.011699102 -0.02740932 -0.071554735 -0.08160862 -0.014904673 0.019482818 -0.039481282 -0.055293784
-0.011708532 -0.03320422 0.00870588 -0.057293545 -0.05943662 -0.044958863 -0.020895367 0.0035515842
0.0099428035 -0.053803075 -0.006329075 0.010434886 0.0009809132 0.00907248 0.031507928 -0.0043898243
0.03395929 0.043427333 0.028426556 -0.0075080316 -0.013710874 -0.022104159 -0.0023389582 0.036205675
0.044749543 0.002566391 0.060994275 -0.0074607553 0.016854912 -0.023131412 0.021875087 0.05198771
0.024253793 0.006579329 -0.019395173 -0.04520986 -0.03711925 -0.04939887 0.04604063 -0.022382967
-0.0031743802 -0.04255814 -0.009315016 0.058016047 0.023036035 -0.0019731007 0.042484216 0.057566207
0.059418954 -0.019521888 0.026789092 -0.02494232 -0.023456322 0.059850603 -0.028383877 -0.021117745
0.035142533 0.060550388 -0.03530146 -0.017618459 -0.010084277 0.05834678 0.049369615 0.04470895
0.052823406 0.007293844 0.06327237 0.017255917 0.029345728 0.005645687 0.04795898 0.053938817
0.018949972 0.04914751 -0.014469489 0.016185366 0.0486784 0.032746278 -0.02048154 -0.025145788
0.016358672 0.0032242548 -0.012745023 0.018821938 -0.00025634473 -0.041826032 -0.050977383 0.028891826
-0.028886933 -0.038871136 -0.059456203 0.028504794 0.009162157 -0.057313915 -0.062005803 0.03911938
0.008438577 -0.02646611 -0.060488775 0.015163619 -0.021749584 0.04776104 -0.034679685 -0.022736885
-0.016708717 0.07326136 0.06537366 -0.021153517 0.056850623 -0.021995988 -0.03534298 0.051289797
0.043362327 0.046251737 0.030456942 0.06744231 -0.032992672 0.04849286 0.0069241803 0.024059623
0.061022367 -0.016251301 0.04805045 0.008742059 0.06400301 0.022571435 0.053328842 0.04809836
-0.025479194 -0.06330957 0.04659149 -0.037145842 0.0062214537 0.023706276 -0.019531045 0.032317888
0.021566257 -0.02928759 -0.007923681 -0.011902571 0.0339019 0.011398631 -0.049004074 -0.009648637
0.004222424 0.0118702855 -0.011861404 0.016033404 -0.014601123 -0.0053203795 -0.021934895 0.04264349
0.038165756 -0.009344783 -0.055361927 0.03649484 -0.054837372 0.02356543 -0.061462875 -0.033092435
-0.04231535 0.0361944 -0.025436696 0.08923898 0.06554981 0.10864272 0.101645775 0.09489043
0.10848581 0.051179036 0.04895159 0.08502283 0.032873936 -0.03202203 -0.033178423 -0.04135998
00000000: d244 5abd 0c88 7c3c 5b78 0cbd 5504 173c
00000010: 7db4 ee3c 2e63 52bb d271 233c c355 143d
00000020: e1f5 febc a1a9 b03c 169d 21bd 3e7e 313d
00000030: 540b cbbc 234a d43b abdc 093d 4dae 74bc
00000040: 61bf 263d ed46 efbc a0a2 09bc 8503 843d
00000050: 0f06 80bc bc14 593d e7db 7b3d 4538 433d
00000060: 209d 82bc 03c7 c9ba b3bc 32bd f95a 5cbd
00000070: b1ec 01bd 34d5 5bbd fcb5 a43c 6279 993c
00000080: 12aa c4bc 33c6 a2bc 4fb2 3d3d cc67 e9bb
00000090: d315 f63c 9e58 103d 933e 0bbd 4940 87bd
000000a0: 34d0 213d a3b2 21bd 0214 113d 15d9 64bd
000000b0: 6036 cbba 7920 fabb 98d2 12bd 2a59 a93c
000000c0: d93d 78bd 2493 09bd 8ef0 9ebc bfc6 66bb
000000d0: d3da 1dbc c8e4 353b fed3 933c e99c 503d
000000e0: fe9f 8fbc 9f0a 8abc e9eb 2bbb cbb1 d83c
000000f0: 032f 7dbc f2e8 df3c ce94 973c f2d9 2d3d
00000100: d16c 8f3d 7883 283d cfc9 993d 9dfc 433c
00000110: 7123 50bc d3b2 853d 3012 3f3d f9ed a33d
00000120: 97ad 3fbc 8389 e0bc 4a8b 92bd 6c22 a7bd
00000130: bb32 74bc 6e9a 9f3c 20b7 21bd bc7b 62bd
00000140: 25d5 3fbc 2601 08bd 1ba3 0e3c a3ac 6abd
00000150: d073 73bd c926 38bd c32c abbc b2c1 683b
00000160: 24e7 223c 9d60 5cbd 2164 cfbb 16f7 2a3c
00000170: fc91 803a bda4 143c 750e 013d 84d8 8fbb
00000180: e518 0b3d dce0 313d cfde e83c ef05 f6bb
00000190: 93a3 60bc c813 b5bc 3549 19bb 674c 143d
000001a0: 4c4b 373d e530 283b 22d5 793d 5a79 f4bb
000001b0: 5013 8a3c 167e bdbc 6233 b33c 11f1 543d
000001c0: e4af c63c 6997 d73b a0e2 9ebc f92d 39bd
000001d0: 5b0a 18bd 7856 4abd 1a95 3c3d 7c5c b7bc
000001e0: 4309 50bb 7251 2ebd 029e 18bc 3ca2 6d3d
000001f0: 11b6 bc3c 234f 01bb ee03 2e3d 8bca 6b3d
00000200: 4a61 733d 5eec 9fbc cc74 db3c d653 ccbc
00000210: 7927 c0bc e825 753d 4e85 e8bc 1fff acbc
00000220: 9ef1 0f3d af03 783d 4498 10bd 9654 90bc
00000230: 8638 25bc 08fd 6e3d cb37 4a3d bb20 373d
00000240: 5b5d 583d 3301 ef3b f294 813d 485c 8d3c
00000250: 7466 f03c 75ff b83b a370 443d f3ee 5c3d
00000260: f93c 9b3c e64e 493d 7011 6dbc 2c97 843c
00000270: 0163 473d f620 063d e7c8 a7bc 8afe cdbc
00000280: 9f02 863c 054e 533b 80d0 50bc 7730 9a3c
00000290: 0266 86b9 c651 2bbd a9cd 50bd 8dae ec3c
000002a0: 4aa4 ecbc 5737 1fbd 5988 73bd e382 e93c
000002b0: df1c 163c ffc1 6abd ccf9 7dbd a53b 203d
000002c0: f541 0a3c 75cf d8bc 14c3 77bd d470 783c
000002d0: 2f2c b2bc 15a1 433d 490c 0ebd b442 babc
000002e0: b8e0 88bc 0d0a 963d a0e2 853d 244a adbc
000002f0: 33dc 683d ee30 b4bc cdc3 10bd 4015 523d
00000300: b29c 313d 7672 3d3d d680 f93c 321f 8a3d
00000310: 5323 07bd 73a0 463d 3ce4 e23b b018 c53c
00000320: 97f2 793d 7321 85bc 8cd0 443d da3a 0f3c
00000330: 0314 833d bbe7 b83c 586f 5a3d c902 453d
00000340: beb9 d0bc 73a8 81bd b8d6 3e3d 3d26 18bd
00000350: 56dd cb3b aa33 c23c 92ff 9fbc c35f 043d
00000360: b8ab b03c 87ec efbc 54d2 01bc 0003 43bc
00000370: b8dc 0a3d 53c1 3a3c 7fb8 48bd 5115 1ebc
00000380: 425c 8a3b 967b 423c 5656 42bc 7c58 833c
00000390: 8c39 6fbc 9456 aebb cfb0 b3bc f1aa 2e3d
000003a0: b253 1c3d dc1a 19bc 30c3 62bd 9d7b 153d
000003b0: 279d 60bd 4a0c c13c 7fc0 7bbd ef8b 07bd
000003c0: dc52 2dbd 9440 143d 9e60 d0bc edc2 b63d
000003d0: fb3e 863d 1380 de3d a92b d03d ea55 c23d
000003e0: cf2d de3d 1ca1 513d 7681 483d 7320 ae3d
000003f0: d2a6 063d 8829 03bd 19e6 07bd 1569 29bd

features.8.bias f4 [64]
-0.031125285 0.03476712 0.00042013894 0.07394277 0.041605838 -0.071766436 0.025459189 -0.06006976
-0.02021169 -0.00041628006 -0.05693316 0.03314733 0.040300064 -0.007721498 0.037970528 -0.056374874
0.0056533865 0.031614833 -0.030240575 -0.03965994 0.009627949 0.06791106 -0.030440444 0.04087185
0.028263751 -0.038335573 -0.02806668 -0.0066095116 0.054538157 -0.047199294 -0.03788382 0.05398356
-0.025421903 -0.05164996 0.063692376 0.044799864 0.022267744 0.025441479 0.011539313 -0.023448337
-0.029646073 0.08503674 0.014217364 -0.017414533 -0.0135686 -0.05185171 0.017150072 0.011124321
-0.0060394653 -0.022303086 -0.06693564 -0.027800946 -0.0028175123 -0.0023076057 -0.035505403 0.04854252
-0.053981334 -0.05008918 0.050349895 -0.049573842 -0.020788163 0.0075762677 -0.04801624 0.0019756476
00000000: 74fa febc f867 0e3d 1846 dc39 4f6f 973d
00000010: e26a 2a3d 48fa 92bd ca8f d03c b50b 76bd
00000020: fc92 a5bc 2a40 dab9 bf32 69bd 7fc5 073d
00000030: ae11 253d 9f04 fdbb fc86 1b3d 57e9 66bd
00000040: 0b40 b93b 8e7e 013d 15bb f7bc 7672 22bd
00000050: 8cbe 1d3c f414 8b3d 3d5e f9bc 3e69 273d
00000060: 6289 e73c c305 1dbd 18ec e5bc 9a94 d8bb
00000070: 6763 5f3d 0c54 41bd 102c 1bbd de1d 5d3d
00000080: 9841 d0bc e98e 53bd 2671 823d 1080 373d
00000090: d86a b63c a66a d03c 630f 3d3c ba16 c0bc
000000a0: 52dc f2bc be27 ae3d f2ef 683c eca8 8ebc
000000b0: d54e 5ebc 7562 54bd 4f7e 8c3c c942 363c
000000c0: b5e6 c5bb f6b4 b6bc 8e15 89bd cfbe e3bc
000000d0: 03a6 38bb 333b 17bb 1d6e 11bd 85d4 463d
000000e0: 881b 5dbd 502a 4dbd b13b 4e3d f10d 4bbd
000000f0: f04b aabc 5742 f83b adac 44bd de79 013b

features.9.weight f4 [64]
1.0644217 1.1300797 1.096727 1.1180648 1.0835258 1.074506 1.0717274 1.05928
1.0711055 1.1212302 1.0535614 1.0941514 1.0850679 1.115141 1.0753287 1.0700575
1.0969081 1.0589794 1.0825305 1.083725 1.0767171 1.0553242 1.0942562 1.1220645
1.1061174 1.1006918 1.1127961 1.0767573 1.071444 1.1159683 1.0545452 1.0843707
1.0973793 1.0776426 1.077305 1.0760695 1.0839258 1.0801321 1.0658523 1.1049492
1.0568116 1.107031 1.1015068 1.0997764 1.0850859 1.0511954 1.1044103 1.0836326
1.074453 1.1092924 1.0544938 1.0759016 1.1244588 1.0779964 1.1429585 1.0798559
1.0738903 1.1320028 1.0824318 1.0720356 1.0651499 1.0576122 1.0581119 1.0642865
00000000: f83e 883f 74a6 903f 8d61 8c3f bf1c 8f3f
00000010: f9b0 8a3f 6a89 893f 5d2e 893f 7d96 873f
00000020: fc19 893f 7984 8f3f 1adb 863f 270d 8c3f
00000030: 81e3 8a3f f1bc 8e3f 5fa4 893f a5f7 883f
00000040: 7c67 8c3f a38c 873f 5c90 8a3f 80b7 8a3f
00000050: ded1 893f dd14 873f 9610 8c3f cf9f 8f3f
00000060: 4195 8d3f 78e3 8c3f 1a70 8e3f 2fd3 893f
00000070: 1425 893f 0dd8 8e3f 56fb 863f a9cc 8a3f
00000080: ed76 8c3f 31f0 893f 21e5 893f a5bc 893f
00000090: 15be 8a3f c541 8a3f d96d 883f fa6e 8d3f
000000a0: 9a45 873f 31b3 8d3f 2dfe 8c3f 79c5 8c3f
000000b0: 18e4 8a3f 928d 863f 515d 8d3f 79b4 8a3f
000000c0: ad87 893f 4bfd 8d3f a7f9 863f 25b7 893f
000000d0: 44ee 8f3f c9fb 893f 774c 923f b838 8a3f
000000e0: 3d75 893f 78e5 903f 208d 8a3f 7638 893f
000000f0: d556 883f d65f 873f 3670 873f 8a3a 883f

features.9.bias f4 [64]
0.014825254 0.06414138 0.044989254 0.036163278 0.025936125 0.03359384 0.0372834 0.041410577
0.0342892 0.06949768 0.037722684 0.060402893 0.045356277 0.043143395 0.011516288 0.03339052
0.03803565 0.014996503 0.05340337 0.022988455 0.03560525 0.0064094574 0.045739558 0.060882695
0.027501417 0.026560575 0.06848957 0.04144134 0.01785662 0.03304617 0.020790895 0.036681052
0.056597076 0.048122324 0.05077875 0.037164487 0.039438125 0.028291732 0.024598349 0.052683543
0.020449262 0.05349148 0.047707252 0.035857845 0.027007012 0.0108535355 0.054448336 0.049441297
0.012991066 0.07023146 0.019871166 0.031326234 0.07598968 0.02725605 0.08101049 0.031508017
0.028803598 0.058997452 0.03394769 0.025641752 0.032534424 0.023128822 0.021052888 0.0073971055
00000000: 9fe5 723c 8e5c 833d a746 383d f21f 143d
00000010: ff77 d43c b299 093d 7ab6 183d 239e 293d
00000020: d572 0c3d cd54 8e3d 1a83 1a3d 0669 773d
00000030: 81c7 393d 21b7 303d d0ae 3c3c 7fc4 083d
00000040: 45cb 1b3d e4b3 753c 7ebd 5a3d 4952 bc3c
00000050: d0d6 113d 6d06 d23b 6759 3b3d 2260 793d
00000060: a74a e13c 9095 d93c 4244 8c3d 65be 293d
00000070: 0c48 923c 6c5b 073d ab51 aa3c df3e 163d
00000080: 56d2 673d ea1b 453d 61fd 4f3d ca39 183d
00000090: df89 213d 10c4 e73c 7a82 c93c b3ca 573d
000000a0: 3685 a73c e219 5b3d ae68 433d addf 123d
000000b0: cf3d dd3c 07d3 313c 3805 5f3d f582 4a3d
000000c0: 7bd8 543c 83d5 8f3d dbc8 a23c f04f 003d
000000d0: 7aa0 9b3d 1448 df3c d4e8 a53d 8d0e 013d
000000e0: 86f5 eb3c 50a7 713d bc0c 0b3d a70e d23c
000000f0: d142 053d a878 bd3c 1b77 ac3c 6b63 f23b

features.9.running_mean f4 [64]
1.0788041 1.6456026 1.0818293 0.97699606 0.40177345 0.49424928 1.2621807 -0.6516818
0.37849987 0.44960636 0.0838777 -0.85128397 -0.8731228 1.1727034 1.5748224 1.5751361
0.31451425 1.3190753 -2.3837533 0.8687717 -0.83482367 0.4693883 0.29612148 0.39475095
1.1801996 0.73719746 -0.45726904 -1.3144515 1.8188647 0.71484584 2.2759004 1.7171173
-0.15876515 -1.0812993 -2.1380033 0.8487867 1.2252504 0.932502 1.1146747 -0.32587087
1.2776048 0.289408 1.6413444 1.0659728 1.4255233 1.0131202 0.7367498 -0.39437124
1.744799 -0.7709361 -1.1822599 1.0331656 0.23024556 0.76703304 -0.17334223 0.9983052
0.90513444 0.4177261 2.0340471 1.6449654 0.04511662 1.2575727 0.8591093 0.36065423
00000000: 4116 8a3f 1ba3 d23f 6279 8a3f 6a1c 7a3f
00000010: 40b5 cd3e 3e0e fd3e 238f a13f 9ed4 26bf
00000020: bcca c13e ce32 e63e 12c8 ab3d bfed 59bf
00000030: fa84 5fbf 251b 963f c893 c93f 0f9e c93f
00000040: 0308 a13e 76d7 a83f 6a8f 18c0 d267 5e3f
00000050: 01b7 55bf aa53 f03e 3c9d 973e cc1c ca3e
00000060: c810 973f f9b8 3c3f 2b1f eabe f23f a8bf
00000070: 8fd0 e83f 2300 373f 5aa8 1140 80ca db3f
00000080: 5593 22be 0468 8abf 0cd5 08c0 164a 593f
00000090: 01d5 9c3f 73b8 6e3f a9ad 8e3f 8cd8 a6be
000000a0: 8e88 a33f 492d 943e 9317 d23f cc71 883f
000000b0: 8c77 b63f ecad 813f a39b 3c3f 07eb c9be
000000c0: 9355 df3f 115c 45bf 4b54 97bf c53e 843f
000000d0: 7ec5 6b3e 475c 443f a080 31be ee90 7f3f
000000e0: e4b6 673f 32e0 d53e d42d 0240 3a8e d23f
000000f0: 34cc 383d 24f8 a03f 96ee 5b3f aca7 b83e

features.9.running_var f4 [64]
0.29130596 0.3792895 0.46904793 0.37833253 0.38100237 0.28395304 0.30851552 0.4236911
0.2440215 0.42002252 0.36824647 0.3817005 0.4037155 0.28132597 0.28680673 0.33843324
0.3000617 0.48579386 0.47760567 0.3468978 0.5009053 0.4327574 0.35441884 0.39788896
0.33008516 0.38474604 0.30003127 0.44659674 0.43000472 0.4640605 0.4343324 0.3691938
0.3011309 0.60027575 0.38812527 0.2859228 0.3564199 0.6934162 0.26006642 0.3796492
0.40729177 0.23979166 0.28574976 0.3282976 0.28895643 0.49842194 0.34467512 0.3200394
0.3633944 0.437922 0.399282 0.50912136 0.57549685 0.38517693 0.2574893 0.3113822
0.37279418 0.40050435 0.3029404 0.39908814 0.2867464 0.44550705 0.38511142 0.507964
00000000: 0e26 953e 3c32 c23e 0d27 f03e cdb4 c13e
00000010: be12 c33e 4b62 913e bff5 9d3e 0aee d83e
00000020: c6e0 793e 310d d73e cd8a bc3e 3f6e c33e
00000030: ccb3 ce3e f509 903e 55d8 923e 1f47 ad3e
00000040: b0a1 993e f9b9 f83e bb88 f43e 979c b13e
00000050: 543b 003f 6192 dd3e 6376 b53e 1ab8 cb3e
00000060: ec00 a93e 6ffd c43e b39d 993e 54a8 e43e
00000070: 9429 dc3e 5699 ed3e d160 de3e f806 bd3e
00000080: d42d 9a3e acab 193f 5bb8 c63e 7964 923e
00000090: ab7c b63e b983 313f 6d27 853e 6161 c23e
000000a0: 8c88 d03e f28b 753e cb4d 923e 9f16 a83e
000000b0: 19f2 933e 2931 ff3e 4279 b03e 34dc a33e
000000c0: d50e ba3e 5037 e03e b16e cc3e c755 023f
000000d0: c353 133f e935 c53e a3d5 833e 7d6d 9f3e
000000e0: e1de be3e e80e cd3e 011b 9b3e 4855 cc3e
000000f0: 6dd0 923e 8019 e43e 532d c53e ee09 023f

classifier.1.weight f4 [128, 1024]
-0.008130493 0.00082530663 0.013701171 0.018856691 0.04084289 0.031549186 0.0276996 0.008015828
0.020174146 0.0030648618 0.021256885 -0.028772652 0.030139143 0.05033779 0.039843455 0.054961633
-0.035205603 -0.039952215 -0.009454657 -0.011701228 -0.07313882 -0.07107515 -0.069263816 -0.0765714
-0.01698486 -0.013200112 -0.042742405 -0.0678874 0.0390082 0.097414844 0.06608134 0.04298744
-0.035006575 -0.035635404 0.0069752755 -0.05622637 -0.020110311 -0.023917887 -0.01994286 -0.018613834
-0.029231513 -0.0072600003 -0.01644837 -0.05988005 -0.011731502 -0.013482719 0.030281708 -0.0056124213
-0.0030733373 -0.032630164 0.009121077 -0.003136811 -0.023997152 0.00085421157 -0.024763694 -0.03856846
0.03340017 0.060342178 0.07094541 0.0071398495 0.005858813 -0.016532049 0.008477823 -0.012419289
-0.03239924 -0.023398802 0.008715535 0.022868514 0.015745252 0.03821638 0.029763898 0.017283939
0.049281273 0.022737242 0.059673112 0.02435544 -0.028514305 0.006386636 0.0015171398 -0.024149494
-0.0057624956 0.016955124 0.006062159 0.05108083 0.012345483 0.014052683 -0.008907076 -0.00815382
-0.0039458442 -0.005092041 0.003370371 0.0034696353 0.027606864 0.019663678 0.028051553 -0.004744766
0.024138818 -0.013005356 0.0020809143 -0.012264547 -0.0002870966 -0.012799264 -0.04483772 -0.029709676
-0.015233294 0.00041102356 0.002133018 -0.050103143 -0.0036380263 0.040929716 0.028966852 0.023557022
0.015607371 -0.04338126 -0.011792703 -0.02209437 -0.0089494735 -0.028156135 -0.0249898 0.00898497
-0.03980409 -0.030504588 -0.030523192 -0.043491803 -0.009374917 -0.04121681 -0.026316766 -0.02168725
0.011767701 0.02597232 0.022771431 0.0077863596 0.012485648 0.032405384 -0.015935376 0.035629775
-0.01227134 0.0010364515 -0.024439242 0.025419438 0.010147648 0.010476795 0.013381042 -0.01969789
0.014568912 0.013060738 -0.025409225 0.0014767004 -0.038693734 -0.021991106 -0.028757988 -0.010952585
0.06067195 0.034305736 0.012691151 0.023270367 -0.01834641 -0.0035826692 0.0101902615 0.0036911364
0.00021286786 -0.005840618 -0.0080616055 -0.0401199 -0.010874944 -0.06737796 -0.05082487 -0.06861552
-0.03499677 -0.0133419875 -0.039408732 -0.042101823 -0.01595612 -0.017938752 0.0002956831 -0.020927431
0.014132066 -0.028950673 0.02759179 -0.034760162 0.075294554 0.039088633 0.06199332 0.026157549
0.00511119 -0.00046493328 -0.032194555 -0.018095672 0.034818783 -0.008303771 -0.009731135 -0.002050045
0.015751954 0.0079721445 -0.030436525 -0.0135304 0.026779942 -0.009583143 0.039673798 0.008064743
-0.005454341 -0.04650499 -0.03341923 -0.03478406 0.015054294 -0.008986674 0.010783947 0.015710566
-0.0048079668 -0.027483247 -0.030385137 -0.025809508 -0.045353837 -0.021878462 -0.06695528 -0.06532565
-0.043948513 -0.05381472 -0.01405007 -0.031964004 0.023466898 0.056323186 0.019086357 0.01945489
0.006321151 -0.035655115 -0.006348849 -0.047485903 0.027983822 -0.00086667464 0.014452262 0.004642896
-0.0035334043 -0.0057466053 -0.01973354 -0.033997435 0.037184276 0.043939024 0.009828522 0.019127091
0.003592395 0.0021215528 0.003538269 0.003962742 -0.031441294 -0.016943121 -0.023949314 0.018571714
-0.040289484 -0.010759302 -0.021804646 -0.023389218 0.023875732 0.019167611 0.008529431 0.049591113
00000000: c235 05bc 6459 583a e07a 603c 5979 9a3c
00000010: e04a 273d b839 013d 46ea e23c d254 033c
00000020: 4044 a53c d9db 483b eb22 ae3c a0b4 ebbc
00000030: 5de6 f63c 002f 4e3d e432 233d 731f 613d
00000040: c033 10bd efa4 23bd b5e7 1abc 82b6 3fbc
00000050: cec9 95bd d98f 91bd 30da 8dbd 77d1 9cbd
00000060: d523 8bbc 4845 58bc a912 2fbd 8d08 8bbd
00000070: 10c7 1f3d 6f81 c73d a755 873d 9913 303d
00000080: 0e63 0fbd 6ef6 11bd da90 e43b 9f4d 66bd
00000090: 61be a4bc 72ef c3bc 355f a3bc 0a7c 98bc
000000a0: ed76 efbc 4ce5 edbb bbbe 86bc c944 75bd
000000b0: 7c35 40bc 9fe6 5cbc 5811 f83c 67e8 b7bb
000000c0: 0b6a 49bb 35a7 05bd 9270 153c f592 4dbb
000000d0: ad95 c4bc 2bed 5f3a 3bdd cabc f6f9 1dbd
000000e0: 9ece 083d 5c29 773d d44b 913d 66f5 e93b
000000f0: 49fb bf3b 386e 87bc 91e6 0a3c 467a 4bbc
00000100: 11b5 04bd d8ae bfbc 9acb 0e3c c056 bb3c
00000110: 30fc 803c c788 1c3d 6bd3 f33c 0c97 8d3c
00000120: 29db 493d 7443 ba3c cb6b 743d 0f85 c73c
00000130: d596 e9bc fc46 d13b c4da c63a 29d5 c5bc
00000140: 51d3 bcbb 79e5 8a3c 13a5 c63b 223a 513d
00000150: b544 4a3c 393d 663c fcee 11bc 9a97 05bc
00000160: 244c 81bb 23db a6bb 71e1 5c3b d262 633b
00000170: ca27 e23c b915 a13c 5fcc e53c fb79 9bbb
00000180: c5be c53c 6b14 55bc f35f 083b 3df1 48bc
00000190: 7485 96b9 01b4 51bc c2a7 37bd b561 f3bc
000001a0: 1195 79bc a67e d739 1bca 0b3b f438 4dbd
000001b0: f46b 6ebb eba5 273d e44b ed3c a8fa c03c
000001c0: 0fb6 7f3c 8cb0 31bd 2e36 41bc 41ff b4bc
000001d0: d0a0 12bc b2a7 e6bc 69b7 ccbc b235 133c
000001e0: 9d09 23bd c2e4 f9bc c60b fabc 7624 32bd
000001f0: 4099 19bc f5d2 28bd 4296 d7bc 76a9 b1bc
00000200: 51cd 403c e7c3 d43c 278b ba3c b824 ff3b
00000210: 9a90 4c3c 82bb 043d e88a 82bc 87f0 113d
00000220: bb0d 49bc 8bd9 873a ce34 c8bc 6d3c d03c
00000230: 5242 263c dda6 2b3c 283c 5b3c 785d a1bc
00000240: 72b2 6e3c b5fc 553c 0227 d0bc d88d c13a
00000250: 527d 1ebd b126 b4bc df95 ebbc 7972 33bc
00000260: 2783 783d 2c84 0c3d 8cee 4f3c 7fa1 be3c
00000270: 364b 96bc 37cb 6abb 0ef5 263c fee6 713b
00000280: 4835 5f39 a862 bfbb d314 04bc c454 24bd
00000290: d22c 32bc 75fd 89bd bd2d 50bd 4b86 8cbd
000002a0: c658 0fbd 5a98 5abc 0d6b 21bd f672 2cbd
000002b0: 69b6 82bc 4af4 92bc ea05 9b39 0170 abbc
000002c0: 2e8a 673c f629 edbc 2d08 e23c ac60 0ebd
000002d0: 0834 9a3d 671b 203d b5ec 7d3d 5b48 d63c
000002e0: c57b a73b 4ac2 f3b9 70de 03bd 603d 94bc
000002f0: 249e 0e3d 8a0c 08bc 576f 1fbc 0c5a 06bb
00000300: 3e0a 813c 999d 023c 0556 f9bc 9cae 5dbc
00000310: 9c61 db3c 9d02 1dbc fe80 223d fc21 043c
00000320: 54ba b2bb 047c 3ebd 9ae2 08bd bb79 0ebd
00000330: 49a6 763c d83c 13bc 27af 303c 72b3 803c
00000340: 268c 9dbb 8c24 e1bc 40ea f8bc 766e d3bc
00000350: f2c4 39bd 763a b3bc da1f 89bd 74c9 85bd
00000360: 5b03 34bd d36c 5cbd 4432 66bc b0ec 02bd
00000370: a73d c03c 24b3 663d fe5a 9c3c dd5f 9f3c
00000380: a821 cf3b 190b 12bd 010a d0bb 9480 42bd
00000390: 543e e53c 8d31 63ba 2ec9 6c3c 6f23 983b
000003a0: b090 67bb 054e bcbb 3ca8 a1bc e540 0bbd
000003b0: 8a4e 183d 68f9 333d cf07 213c 6bb0 9c3c
000003c0: 636e 6b3b c009 0b3b 4ee2 673b e4d9 813b
000003d0: 96c8 00bd 4dcc 8abc 5a31 c4bc b523 983c
000003e0: 9606 25bd c947 30bc a89f b2bc bf9a bfbc
000003f0: 0a97 c33c 6505 9d3c 07bf 0b3c 0d20 4b3d

classifier.1.bias f4 [128]
-0.03523529 0.012522376 -0.010359768 0.0043601617 0.0032391923 0.0033333148 0.019958647 -0.013425144
0.0071414597 -0.004980744 -0.03072743 -0.009941747 -0.0052313413 0.026372524 0.011400352 0.020705888
0.024571374 -0.02038135 -0.0067593227 -0.0063282624 -0.018030925 0.010847871 -0.03389068 0.023024378
0.028425414 -0.0012950856 0.0480673 -0.01826387 0.024342807 -0.025347618 -0.022275215 -0.03387144
0.020945583 -0.03210457 0.039104983 0.029231591 -0.03405099 0.014732762 0.039833892 0.023939637
0.011345042 -0.025321567 -0.022044996 -0.011026341 0.028682588 -0.033466794 0.013150416 -0.013286736
0.015918635 -0.017233904 -0.02295433 -0.006340616 0.039346505 0.024307672 -1.6630358e-05 0.012282286
-0.012025326 -0.003741808 -0.027549393 -0.006285567 -0.007314093 -0.024962494 -0.002333858 0.037535615
-0.013958301 0.02502519 0.014721649 -0.016394239 -0.031040428 0.021614594 -0.021603163 0.02171951
0.024338739 -0.015908731 0.015038645 -0.003395871 0.026072951 0.019731347 0.020632513 -0.015316755
-0.0072397143 0.022266015 -0.023652619 -0.023365354 -0.02021253 0.027742613 -0.0171709 -0.014443742
-0.005226238 0.006397736 0.023409506 -0.0026181277 -0.00042669094 -0.021215988 0.014773632 -0.0039023878
0.009651067 -0.00984889 0.0075184824 0.008871043 0.008193461 -0.025327293 -0.02334317 -0.006788535
0.03691989 0.0073543587 -0.013263783 -0.017796371 -0.007896803 -0.021625848 0.0078000654 0.035789732
0.013796306 -0.025936982 -0.0236879 -0.011239247 -0.023316711 -0.025857864 -0.005664397 0.01959737
-0.0026905662 -0.010707856 0.020226583 -0.01254442 -0.0026645141 0.0025167267 -0.022430716 0.026280642
00000000: e152 10bd a72a 4d3c 04bc 29bc b0df 8e3b
00000010: a148 543b be73 5a3b 5180 a33c 23f5 5bbc
00000020: e802 ea3b 8235 a3bb 17b8 fbbc b6e2 22bc
00000030: ac6b abbb 310b d83c 8bc8 3a3c 659f a93c
00000040: e849 c93c caf6 a6bc 4f7d ddbb 505d cfbb
00000050: 97b5 93bc 45bb 313c f4d0 0abd 9f9d bc3c
00000060: 6adc e83c ddbf a9ba 38e2 443d 1d9e 95bc
00000070: 916a c73c cfa5 cfbc 837a b6bc c7bc 0abd
00000080: 1296 ab3c 1580 03bd 8c2c 203d 1777 ef3c
00000090: 0d79 0bbd af61 713c dd28 233d 0f1d c43c
000000a0: 8ee0 393c 2d6f cfbc b597 b4bc d3a7 34bc
000000b0: bff7 ea3c 7a14 09bd d874 573c 9cb0 59bc
000000c0: cc67 823c 1e2e 8dbc b80a bcbc f1c4 cfbb
000000d0: cd29 213d e220 c73c 6c81 8bb7 a43b 493c
000000e0: df05 45bc 1f39 75bb 44af e1bc 28f7 cdbb
000000f0: 0fab efbb 257e ccbc a4f3 18bb f2be 193d
00000100: 5cb1 64bc a101 cd3c 1233 713c 364d 86bc
00000110: 7f48 febc 1711 b13c 1ef9 b0bc 1ded b13c
00000120: 0962 c73c 0753 82bc a664 763c 438d 5ebb
00000130: f196 d53c a2a3 a13c 8405 a93c 20f3 7abc
00000140: 203b edbb 3867 b63c 23c3 c1bc b368 bfbc
00000150: bf94 a5bc 7a44 e33c fda9 8cbc 72a5 6cbc
00000160: dd40 abbb 19a4 d13b 4bc5 bf3c e594 2bbb
00000170: 7db5 dfb9 27cd adbc 1b0d 723c 34bf 7fbb
00000180: 821f 1e3c 3d5d 21bc 9a5d f63b da57 113c
00000190: de3d 063c 2f7b cfbc 2d3a bfbc 5c72 debb
000001a0: 5039 173d d5fc f03b 5750 59bc b2c9 91bc
000001b0: 9861 01bc b128 b1bc b197 ff3b 4198 123d
000001c0: e709 623c cb79 d4bc 200d c2bc d224 38bc
000001d0: b002 bfbc dfd3 d3bc 689c b9bb aa8a a03c
000001e0: 3654 30bb 0170 2fbc 38b2 a53c 1c87 4dbc
000001f0: 219f 2ebb abef 243b 9fc0 b7bc 804a d73c

classifier.4.weight f4 [10, 128]
-0.06457807 0.0618857 0.04819019 -0.02904856 -0.08870727 0.058606055 0.05708765 0.07280262
-0.03140712 -0.15102902 0.06838626 0.094037995 -0.020553298 -0.042674 0.039061513 -0.047311388
0.06412648 0.0031921014 0.07703319 -0.018529484 0.015529557 0.037878763 0.032625612 0.0089077195
-0.035292763 -0.066210836 0.044786282 0.006867661 0.06745244 -0.14500593 0.016914258 0.059319742
-0.02257946 -0.018206162 0.046838976 0.018781196 -0.019522874 -0.033509947 0.10345806 0.060059335
0.018175576 0.010281472 0.033151355 0.054475572 -0.10084387 -0.034737732 0.037323784 0.05737881
0.065281585 -0.16629873 -0.07122375 -0.10308372 0.019438459 -0.044824846 0.060251098 -0.14894874
-0.09026779 0.112202965 -0.019706925 0.11711527 0.073524565 -0.051378623 -0.1166143 -0.028840598
0.08241004 -0.06883405 0.07911477 0.03797458 -0.06936366 -0.08889201 0.005866045 -0.04154713
-0.070337094 0.06256877 -0.025505243 0.028876793 -0.10499769 -0.025708975 0.076847225 0.029530002
0.14625564 -0.05656212 0.061194934 -0.07366445 0.07923629 -0.031171406 -0.0125195375 -0.050453506
-0.06906823 0.029536203 -0.058293384 -0.087963626 -0.043274064 0.06912159 -0.043457672 0.031544387
-0.016542055 -0.0029789587 -0.07580994 -0.056324273 0.034381613 -0.06858287 -0.08480064 -0.046432696
0.07786575 -0.013110287 -0.062835455 -0.061202362 0.052435707 -0.11093313 0.006618558 -0.08300286
-0.13029967 0.015350824 -0.064775415 0.046723694 0.058713723 -0.1603911 0.057819333 -0.20624794
0.08499706 0.07060956 0.113930576 -0.016038716 -0.07837572 -0.13954756 -0.052652676 0.061418373
-0.0038725894 0.0337274 -0.20205012 -0.11305188 0.03968552 -0.19953135 0.069683366 0.02424847
-0.032309964 -0.06607949 0.028941108 0.09053443 0.048737906 -0.22255608 0.074950606 -0.029222047
-0.16652772 0.0011274966 -0.027966345 -0.045210406 -0.017166903 -0.10342326 -0.064790554 0.045725618
0.059044085 -0.04193029 0.070254356 -0.14779994 0.086810745 -0.08502557 -0.15020318 -0.008068296
-0.06630776 0.021143863 0.100119755 -0.10004757 0.012596193 -0.01893115 -0.007872796 0.033671804
0.021821126 0.04225542 -0.2105763 0.07350683 0.030873882 -0.021487877 -0.07676393 -0.062242847
-0.14487545 0.07700749 -0.03311582 -0.08103029 0.07877604 0.044633485 0.04261414 -0.06848878
-0.03514695 -0.01085702 0.06599402 -0.11877976 -0.14891587 -0.095106624 0.13446252 0.13389279
0.011066675 -0.0070612435 0.06710473 0.09417836 -0.04420839 0.015711552 -0.06666916 0.07680477
-0.03590233 0.013911152 -0.20598234 0.117742814 0.10199805 -0.009579471 0.09457516 0.06564056
0.020490289 -0.066660285 -0.064142 0.051631115 -0.042324245 -0.13648456 0.1600719 -0.17210579
-0.019973984 0.019938622 -0.12842077 -0.07485055 0.036323316 0.0539381 -0.18487357 0.034791883
0.01667421 -0.072462305 0.07639436 0.009214251 0.08239706 0.046620544 -0.029282354 -0.092045344
-0.15051256 0.010325883 0.045495763 0.1271889 -0.19071206 0.08847086 -0.00882651 0.10895987
0.00039825315 0.03067986 -0.02545498 -0.04795878 -0.09043957 -0.21624152 -0.052198198 -0.14185023
-0.14926286 -0.074626155 -0.022591924 -0.19561803 -0.0603685 -0.010569364 -0.06183671 -0.051582746
00000000: 8241 84bd dc7b 7d3d 1463 453d 3ff7 edbc
00000010: 28ac b5bd e70c 703d bdd4 693d 8a19 953d
00000020: c1a4 00bd 5aa7 1abe 180e 8c3d fe96 c03d
00000030: 645f a8bc efca 2ebd f7fe 1f3d 96c9 41bd
00000040: be54 833d 9332 513b 94c3 9d3d 25cb 97bc
00000050: af6f 7e3c c326 1b3d 6fa2 053d aff1 113c
00000060: 258f 10bd 8c99 87bd d271 373d 1e0a e13b
00000070: 8124 8a3d 6f7c 14be c58f 8a3c 42f9 723d
00000080: 8ff8 b8bc 1725 95bc 3ada 3f3d 06db 993c
00000090: 6fee 9fbc ba41 09bd d2e1 d33d c700 763d
000000a0: f2e4 943c 9e73 283c b7c9 073d c721 5f3d
000000b0: 3b87 cebd 2749 0ebd d3e0 183d 0b06 6b3d
000000c0: 5ab2 853d 374a 2abe c2dd 91bd 8f1d d3bd
000000d0: 673d 9f3c 429a 37bd dbc9 763d 0586 18be
000000e0: 52de b8bd abca e53d 6b70 a1bc 21da ef3d
000000f0: 0c94 963d 6472 52bd 7ad3 eebd 1e43 ecbc
00000100: 98c6 a83d def8 8cbd ed06 a23d 3c8b 1b3d
00000110: 890e 8ebd 040d b6bd f437 c03b 532d 2abd
00000120: e50c 90bd 0e24 803d 5ff0 d0bc 068f ec3c
00000130: 0709 d7bd a19b d2bc 1462 9d3d e7e8 f13c
00000140: 0ac4 153e aead 67bd 8aa7 7a3d 63dd 96bd
00000150: a346 a23d 2d5b ffbc bf1e 4dbc 56a8 4ebd
00000160: a573 8dbd e8f5 f13c 0bc5 6ebd 4626 b4bd
00000170: 2540 31bd 9f8f 8d3d ac00 32bd b034 013d
00000180: 3483 87bc a23a 43bb 3e42 9bbd 48b4 66bd
00000190: bcd3 0c3d 2d75 8cbd f5ab adbd 3630 3ebd
000001a0: 1478 9f3d 87cc 56bc e0af 80bd 54af 7abd
000001b0: d3c6 563d e930 e3bd 7de0 d83b 67fd a9bd
000001c0: 476d 05be 0682 7b3c f9a8 84bd 5861 3f3d
000001d0: cd7d 703d 913d 24be f7d3 6c3d a932 53be
000001e0: f012 ae3d bf9b 903d 6f54 e93d a063 83bc
000001f0: 7383 a0bd 8ee5 0ebe 55aa 57bd d591 7b3d
00000200: 45cb 7dbb be25 0a3d 3ae6 4ebe be87 e7bd
00000210: 498d 223d f251 4cbe 27b6 8e3d baa4 c63c
00000220: 7457 04bd af54 87bd e715 ed3c 1e6a b93d
00000230: 66a1 473d bee5 63be b47f 993d 1363 efbc
00000240: 3e86 2abe 82c8 933a ad19 e5bc 8c2e 39bd
00000250: 9ba1 8cbc 93cf d3bd e9b0 84bd c94a 3b3d
00000260: 36d8 713d 19bf 2bbd 84e1 8f3d de58 17be
00000270: d5c9 b13d e321 aebd ddce 19be e330 04bc
00000280: 5dcc 87bd e535 ad3c 960b cd3d bee5 ccbd
00000290: 4360 4e3c 8015 9bbc e6fc 00bc 72eb 093d
000002a0: 38c2 b23c 0514 2d3d 50a1 57be c08a 963d
000002b0: 39eb fc3c 5807 b0bc 6836 9dbd 5bf2 7ebd
000002c0: 3b5a 14be 1ab6 9d3d 74a4 07bd 35f3 a5bd
000002d0: 5555 a13d 9ad1 363d 2a8c 2e3d d843 8cbd
000002e0: 40f6 0fbd a4e1 31bc df27 873d ce42 f3bd
000002f0: 677d 18be 43c7 c2bd 8bb0 093e 311b 093e
00000300: 0051 353c 0162 e7bb 346e 893d 96e0 c03d
00000310: db13 35bd 83b5 803c d789 88bd d24b 9d3d
00000320: 520e 13bd 9aeb 633c 09ed 52be 2523 f13d
00000330: 5be4 d03d 37f3 1cbc 9fb0 c13d 8f6e 863d
00000340: 40db a73c 3085 88bd e25c 83bd 267b 533d
00000350: 305c 2dbd 9cc2 0bbe e3e9 233e 803c 30be
00000360: 7ba0 a3bc 5256 a33c bc80 03be 3f4b 99bd
00000370: c2c7 143d 32ee 5c3d 7f4f 3dbe ef81 0e3d
00000380: 5a98 883c 1e67 94bd a574 9c3d 5ff7 163c
00000390: cabf a83d 2ff5 3e3d 8ce1 efbc 4582 bcbd
000003a0: f71f 1abe e42d 293c c459 3a3d cf3d 023e
000003b0: 064a 43be 3630 b53d 119d 10bc 5a26 df3d
000003c0: a2cc d039 5454 fb3c f686 d0bc 6d70 44bd
000003d0: 6238 b9bd 6b6e 5dbe c7cd 55bd 3041 11be
000003e0: 5dd8 18be 99d5 98bd b312 b9bc 1850 48be
000003f0: f644 77bd 202b 2dbc 7d48 7dbd 6e48 53bd

classifier.4.bias f4 [10]
0.014371986 -0.00027348637 0.052290548 -0.07444535 -0.060994703 0.041330624 -0.05908639 0.005569451
-0.04560231 -0.009819561
00000000: 7a78 6b3c b862 8fb9 9d2e 563d ce76 98bd
00000010: 95d5 79bd 4d4a 293d 9204 72bd f17f b63b
00000020: 7dc9 3abd 39e2 20bc
